…
        (drop1): Dropout(p=0.0, inplace=False)
        (norm): Identity()
        (fc2): Linear(in_features=4304, out_features=1152, bias=True)
        (drop2): Dropout(p=0.0, inplace=False)
      )
    )
    (fc_norm): Identity()
    (head_drop): Dropout(p=0.0, inplace=False)
    (head): Identity()
  )
)
===============================================================================================
Layer (type:depth-idx)                        Output Shape              Param #
===============================================================================================
PrismaticVisionBackbone                       [14, 256, 2176]           --
├─VisionTransformer: 1-1                      [14, 256, 1024]           269,312
│    └─PatchEmbed: 2-1                        [14, 256, 1024]           --
│    │    └─Conv2d: 3-1                       [14, 1024, 16, 16]        603,136
│    │    └─Identity: 3-2                     [14, 256, 1024]           --
│    └─Dropout: 2-2                           [14, 261, 1024]           --
│    └─Identity: 2-3                          [14, 261, 1024]           --
│    └─Identity: 2-4                          [14, 261, 1024]           --
│    └─Sequential: 2-5                        --                        --
│    │    └─Block: 3-3                        [14, 261, 1024]           12,598,272
│    │    └─Block: 3-4                        [14, 261, 1024]           12,598,272
│    │    └─Block: 3-5                        [14, 261, 1024]           12,598,272
│    │    └─Block: 3-6                        [14, 261, 1024]           12,598,272
│    │    └─Block: 3-7                        [14, 261, 1024]           12,598,272
│    │    └─Block: 3-8                        [14, 261, 1024]           12,598,272
│    │    └─Block: 3-9                        [14, 261, 1024]           12,598,272
│    │    └─Block: 3-10                       [14, 261, 1024]           12,598,272
│    │    └─Block: 3-11                       [14, 261, 1024]           12,598,272
│    │    └─Block: 3-12                       [14, 261, 1024]           12,598,272
│    │    └─Block: 3-13                       [14, 261, 1024]           12,598,272
│    │    └─Block: 3-14                       [14, 261, 1024]           12,598,272
│    │    └─Block: 3-15                       [14, 261, 1024]           12,598,272
│    │    └─Block: 3-16                       [14, 261, 1024]           12,598,272
│    │    └─Block: 3-17                       [14, 261, 1024]           12,598,272
│    │    └─Block: 3-18                       [14, 261, 1024]           12,598,272
│    │    └─Block: 3-19                       [14, 261, 1024]           12,598,272
│    │    └─Block: 3-20                       [14, 261, 1024]           12,598,272
│    │    └─Block: 3-21                       [14, 261, 1024]           12,598,272
│    │    └─Block: 3-22                       [14, 261, 1024]           12,598,272
│    │    └─Block: 3-23                       [14, 261, 1024]           12,598,272
│    │    └─Block: 3-24                       [14, 261, 1024]           12,598,272
│    │    └─Block: 3-25                       [14, 261, 1024]           12,598,272
│    │    └─Block: 3-26                       [14, 261, 1024]           12,598,272
├─VisionTransformer: 1-2                      [14, 256, 1152]           15,535,568
│    └─PatchEmbed: 2-6                        [14, 256, 1152]           --
│    │    └─Conv2d: 3-27                      [14, 1152, 16, 16]        678,528
│    │    └─Identity: 3-28                    [14, 256, 1152]           --
│    └─Dropout: 2-7                           [14, 256, 1152]           --
│    └─Identity: 2-8                          [14, 256, 1152]           --
│    └─Identity: 2-9                          [14, 256, 1152]           --
│    └─Sequential: 2-10                       --                        --
│    │    └─Block: 3-29                       [14, 256, 1152]           15,239,504
│    │    └─Block: 3-30                       [14, 256, 1152]           15,239,504
│    │    └─Block: 3-31                       [14, 256, 1152]           15,239,504
│    │    └─Block: 3-32                       [14, 256, 1152]           15,239,504
│    │    └─Block: 3-33                       [14, 256, 1152]           15,239,504
│    │    └─Block: 3-34                       [14, 256, 1152]           15,239,504
│    │    └─Block: 3-35                       [14, 256, 1152]           15,239,504
│    │    └─Block: 3-36                       [14, 256, 1152]           15,239,504
│    │    └─Block: 3-37                       [14, 256, 1152]           15,239,504
│    │    └─Block: 3-38                       [14, 256, 1152]           15,239,504
│    │    └─Block: 3-39                       [14, 256, 1152]           15,239,504
│    │    └─Block: 3-40                       [14, 256, 1152]           15,239,504
│    │    └─Block: 3-41                       [14, 256, 1152]           15,239,504
│    │    └─Block: 3-42                       [14, 256, 1152]           15,239,504
│    │    └─Block: 3-43                       [14, 256, 1152]           15,239,504
│    │    └─Block: 3-44                       [14, 256, 1152]           15,239,504
│    │    └─Block: 3-45                       [14, 256, 1152]           15,239,504
│    │    └─Block: 3-46                       [14, 256, 1152]           15,239,504
│    │    └─Block: 3-47                       [14, 256, 1152]           15,239,504
│    │    └─Block: 3-48                       [14, 256, 1152]           15,239,504
│    │    └─Block: 3-49                       [14, 256, 1152]           15,239,504
│    │    └─Block: 3-50                       [14, 256, 1152]           15,239,504
│    │    └─Block: 3-51                       [14, 256, 1152]           15,239,504
│    │    └─Block: 3-52                       [14, 256, 1152]           15,239,504
│    │    └─Block: 3-53                       [14, 256, 1152]           15,239,504
│    │    └─Block: 3-54                       [14, 256, 1152]           15,239,504
│    │    └─Block: 3-55                       [14, 256, 1152]           15,239,504
===============================================================================================
Total params: 730,911,680
Trainable params: 730,911,680
Non-trainable params: 0
Total mult-adds (G): 14.59
